…
log loss is 0.2080, roc is 0.9261\
training identity_hate \
log loss is 0.0644, roc is 0.9285\
VALIDATION METRICS: mean log loss is 0.1513, mean roc is 0.9298\
VALIDATION METRICS: training time is 17.035908, prediction time is 3.603350\
TEST METRICS: mean log loss is 0.1508, mean roc is 0.9319\
The best auroc achieved for logistic tfidf grid search is, class weight - XXXXXXXXX\
\
_________________________________________________________________\
Layer (type)                 Output Shape              Param #   \
=================================================================\
input_1 (InputLayer)         (None, 200)               0         \
_________________________________________________________________\
embedding_1 (Embedding)      (None, 200, 128)          2560000   \
_________________________________________________________________\
conv1d_1 (Conv1D)            (None, 200, 16)           4112      \
_________________________________________________________________\
max_pooling1d_1 (MaxPooling1 (None, 100, 16)           0         \
_________________________________________________________________\
conv1d_2 (Conv1D)            (None, 100, 32)           1056      \
_________________________________________________________________\
max_pooling1d_2 (MaxPooling1 (None, 50, 32)            0         \
_________________________________________________________________\
conv1d_3 (Conv1D)            (None, 50, 64)            4160      \
_________________________________________________________________\
max_pooling1d_3 (MaxPooling1 (None, 25, 64)            0         \
_________________________________________________________________\
dropout_1 (Dropout)          (None, 25, 64)            0         \
_________________________________________________________________\
global_average_pooling1d_1 ( (None, 64)                0         \
_________________________________________________________________\
dropout_2 (Dropout)          (None, 64)                0         \
_________________________________________________________________\
dense_1 (Dense)              (None, 6)                 390       \
=================================================================\
Total params: 2,569,718\
Trainable params: 2,569,718\
Non-trainable params: 0\
_________________________________________________________________\
traing CNN with self embedding...\
Epoch 1/4\
95742/95742 [==============================] - 177s 2ms/step - loss: 0.0967 - acc: 0.9727\
Epoch 2/4\
95742/95742 [==============================] - 164s 2ms/step - loss: 0.0701 - acc: 0.9796\
…
model - toxic, log loss - 0.1281, roc - 0.9548\
model - severe_toxic, log loss - 0.0305, roc - 0.9680\
model - obscene, log loss - 0.0727, roc - 0.9783\
model - threat, log loss - 0.0146, roc - 0.8761\
model - insult, log loss - 0.0914, roc - 0.9661\
model - identity_hate, log loss - 0.0419, roc - 0.8924\
TEST METRICS: log loss for CNN with self embedding is 0.0632, roc is 0.9393.\
\
_________________________________________________________________\
Layer (type)                 Output Shape              Param #   \
=================================================================\
input_2 (InputLayer)         (None, 200)               0         \
_________________________________________________________________\
embedding_4 (Embedding)      (None, 200, 50)           7698750   \
_________________________________________________________________\
conv1d_10 (Conv1D)           (None, 200, 16)           1616      \
_________________________________________________________________\
max_pooling1d_10 (MaxPooling (None, 100, 16)           0         \
_________________________________________________________________\
conv1d_11 (Conv1D)           (None, 100, 32)           1056      \
_________________________________________________________________\
max_pooling1d_11 (MaxPooling (None, 50, 32)            0         \
_________________________________________________________________\
conv1d_12 (Conv1D)           (None, 50, 64)            4160      \
_________________________________________________________________\
max_pooling1d_12 (MaxPooling (None, 25, 64)            0         \
_________________________________________________________________\
dropout_7 (Dropout)          (None, 25, 64)            0         \
_________________________________________________________________\
global_average_pooling1d_4 ( (None, 64)                0         \
_________________________________________________________________\
dropout_8 (Dropout)          (None, 64)                0         \
_________________________________________________________________\
dense_4 (Dense)              (None, 6)                 390       \
=================================================================\
Total params: 7,705,972\
Trainable params: 7,222\
Non-trainable params: 7,698,750\
_________________________________________________________________\
traing CNN with GloVe...\
Epoch 1/4\
95742/95742 [==============================] - 51s 531us/step - loss: 0.1095 - acc: 0.9683\
Epoch 2/4\
95742/95742 [==============================] - 50s 523us/step - loss: 0.0787 - acc: 0.9761\
…
model - toxic, log loss - 0.1616, roc - 0.9347\
model - severe_toxic, log loss - 0.0330, roc - 0.9628\
model - obscene, log loss - 0.0929, roc - 0.9587\
model - threat, log loss - 0.0164, roc - 0.9106\
model - insult, log loss - 0.1082, roc - 0.9475\
model - identity_hate, log loss - 0.0458, roc - 0.8947\
TEST METRICS: log loss for CNN with GloVe is 0.0763, roc is 0.9348.\
\
_________________________________________________________________\
Layer (type)                 Output Shape              Param #   \
=================================================================\
input_2 (InputLayer)         (None, 200)               0         \
_________________________________________________________________\
embedding_7 (Embedding)      (None, 200, 128)          2560000   \
_________________________________________________________________\
lstm_layer (LSTM)            (None, 200, 60)           45360     \
_________________________________________________________________\
global_max_pooling1d_3 (Glob (None, 60)                0         \
_________________________________________________________________\
dropout_15 (Dropout)         (None, 60)                0         \
_________________________________________________________________\
dense_10 (Dense)             (None, 50)                3050      \
_________________________________________________________________\
dropout_16 (Dropout)         (None, 50)                0         \
_________________________________________________________________\
dense_11 (Dense)             (None, 6)                 306       \
=================================================================\
Total params: 2,608,716\
Trainable params: 2,608,716\
Non-trainable params: 0\
_________________________________________________________________\
traing RNN with self embedding...\
Epoch 1/4\
95742/95742 [==============================] - 802s 8ms/step - loss: 0.0792 - acc: 0.9755\
Epoch 2/4\
95742/95742 [==============================] - 834s 9ms/step - loss: 0.0474 - acc: 0.9825\
…
model - toxic, log loss - 0.1097, roc - 0.9710\
model - severe_toxic, log loss - 0.0248, roc - 0.9855\
model - obscene, log loss - 0.0544, roc - 0.9889\
model - threat, log loss - 0.0100, roc - 0.9756\
model - insult, log loss - 0.0696, roc - 0.9816\
model - identity_hate, log loss - 0.0294, roc - 0.9660\
TEST METRICS: log loss for RNN with self embedding is 0.0496, roc is 0.9781.\
\
_________________________________________________________________\
Layer (type)                 Output Shape              Param #   \
=================================================================\
input_2 (InputLayer)         (None, 200)               0         \
_________________________________________________________________\
embedding_5 (Embedding)      (None, 200, 50)           7698750   \
_________________________________________________________________\
lstm_layer (LSTM)            (None, 200, 60)           26640     \
_________________________________________________________________\
global_max_pooling1d_2 (Glob (None, 60)                0         \
_________________________________________________________________\
dropout_13 (Dropout)         (None, 60)                0         \
_________________________________________________________________\
dense_8 (Dense)              (None, 50)                3050      \
_________________________________________________________________\
dropout_14 (Dropout)         (None, 50)                0         \
_________________________________________________________________\
dense_9 (Dense)              (None, 6)                 306       \
=================================================================\
Total params: 7,728,746\
Trainable params: 29,996\
Non-trainable params: 7,698,750\
_________________________________________________________________\
traing RNN with GloVe...\
Epoch 1/4\
95742/95742 [==============================] - 641s 7ms/step - loss: 0.0817 - acc: 0.9734\
Epoch 2/4\
95742/95742 [==============================] - 581s 6ms/step - loss: 0.0595 - acc: 0.979148/95742 [====================>.........] - ETA: 2:50 - loss: 0.0605 - acc: 0.9788\
…
